notebooks/data/torch/model_spot_trained.pt (torch, 77195 bytes, 10 tensors)

conv1.weight f4 [6, 3, 5, 5]
-0.011525475 -0.2048477 0.028078591 0.22805825 -0.12107572 -0.08102363 -0.2965055 0.19832997
0.28279155 -0.22370441 0.2407101 -0.3215031 -0.7588239 0.12379868 0.29640272 0.43646148
0.739665 -0.3934105 -0.66885275 -0.025024585 -0.46806633 0.23894913 0.23840404 0.16392665
-0.09893853 -0.0055130487 -0.030400077 0.06913517 0.2783417 -0.17171124 0.05579448 -0.2503402
0.23383616 0.28271085 -0.083946474 0.40290692 -0.15076609 -0.61915886 0.057224892 0.36610624
0.29430556 0.8099279 -0.44548166 -0.5985635 0.15175858 -0.37466815 0.23815937 0.3437398
0.1097998 0.046425488 -0.17428704 0.10143579 -0.0401468 0.103269055 -0.27256286 0.08268545
-0.23036414 0.1267009 0.25641274 -0.23994099 0.3948616 -0.20352004 -0.596755 -0.097070135
0.3693494 0.29740813 0.7595095 -0.39058492 -0.7463267 -0.1547764 -0.41690776 0.33452803
0.44733745 -0.0021113737 -0.2940939 0.12750691 -0.05590296 0.0025391416 0.063894585 0.14531869
-0.044502217 -0.19695126 -0.3679896 -0.18899652 -0.18014698 -0.14868417 -0.29517782 -0.2934246
-0.23115009 -0.104908146 -0.19328234 -0.4200493 -0.2776234 -0.057758935 -0.11700138 -0.050002042
-0.076827504 -0.14826496 0.002587048 0.027357532 -0.15037328 -0.063476786 -0.19167592 -0.07857807
-0.10571576 -0.021782301 -0.059158657 0.12933439 0.040868934 -0.011407704 -0.17462458 0.11919929
0.16621427 0.19666123 -0.034663755 -0.04730688 0.06802124 0.12345498 0.24186088 0.047856785
-0.101778805 -0.0679004 0.114374526 0.012535377 -0.20458344 0.19567049 0.3036491 0.08974468
0.0004937686 -0.11959285 0.14695753 0.4720597 0.40856555 0.20498955 -0.080237895 0.10365822
0.33383873 0.38039318 0.21671744 0.0071265423 0.011004501 0.24614346 0.23435763 0.2533047
-0.03354439 0.01760192 0.11203988 0.23433523 0.1540704 -0.29768997 -0.09465532 -0.3517823
-0.22992323 -0.0048151272 -0.35569102 0.20322345 -0.0005803625 -0.017304428 0.007401355 -0.04764483
0.42377666 0.81172985 0.74966204 0.68722653 0.30626038 0.00010958135 0.32875964 0.42091754
0.37862262 -0.02720678 -0.33148274 -0.8336029 -0.9477936 -0.37529162 -0.29994318 0.3326587
0.21399158 0.12470409 0.5284039 0.22039358 -0.19015947 -0.28231597 -0.5467518 -0.03235391
-0.18784282 0.14986949 0.25011164 0.30789882 0.3693534 0.045112297 -0.19330092 0.1742247
-0.013008294 0.13485302 -0.09640526 -0.19417837 -0.6300384 -0.8484807 -0.32231233 -0.17462732
0.14497137 0.18224944 -0.059797853 0.23272192 0.21737503 -0.29818994 -0.46961868 -0.9157756
-0.41599604 -0.25911555 -0.10321287 0.23120126 0.1995814 0.05703566 0.12008878 -0.035846524
0.4197378 0.34236988 0.33903733 0.058990043 0.23064278 0.054702524 -0.12177024 0.02037779
0.12088496 0.0018073973 0.23264095 0.032421753 0.0053051747 0.014324698 0.32644787 -0.066275015
-0.43186036 -0.42872036 0.04426972 -0.10916574 -0.39620107 -0.29594228 -0.15824321 0.0358216
-0.22393638 0.003395752 0.10866163 0.08434702 -0.23347792 0.122155555 0.4025569 0.43389907
0.22117966 0.114453964 -0.042136803 0.096675344 0.01722963 -0.19137806 -0.23863761 0.28582126
00000000: 59d5 3cbc 98c3 51be 1305 e63c 1a88 693e
00000010: 8cf6 f7bd b8ef a5bd 92cf 97be 0317 4b3e
00000020: 0eca 903e c512 65be b57c 763e 0e9c a4be
00000030: 4842 42bf 2a8a fd3d 19c2 973e e177 df3e
00000040: af5a 3d3f 1a6d c9be ef39 2bbf 5c00 cdbc
00000050: 64a6 efbe 15af 743e 3020 743e 63dc 273e
00000060: 49a0 cabd cea6 b4bb 9509 f9bc bd96 8d3d
00000070: ce82 8e3e 12d5 2fbe c188 643d 972c 80be
00000080: bf72 6f3e 7abf 903e 21ec abbd d149 ce3e
00000090: 6d62 1abe 3281 1ebf a664 6a3d 4772 bb3e
000000a0: 38af 963e 6f57 4f3f 2c16 e4be 753b 19bf
000000b0: 9a66 1b3e 81d4 bfbe 0de0 733e aafe af3e
000000c0: b8de e03d a728 3e3d 4d78 32be 91bd cf3d
000000d0: f970 24bd ba7e d33d 5c8d 8bbe fd56 a93d
000000e0: 94e4 6bbe e1bd 013e 8848 833e 17b3 75be
000000f0: 4d2b ca3e 8f67 50be f0c4 18bf b5cc c6bd
00000100: 5d1b bd3e e145 983e 376f 423f bffa c7be
00000110: 440f 3fbf b47d 1ebe ef74 d5be 4247 ab3e
00000120: 6a09 e53e f95e 0abb 7a93 96be 2c91 023e
00000130: 81fa 64bd ba67 263b 2adb 823d 6cce 143e
00000140: f547 36bd 97ad 49be 2269 bcbe 4e88 41be
00000150: 7378 38be aa40 18be 8c21 97be c03b 96be
00000160: 9cb2 6cbe 15da d6bd ceeb 45be b410 d7be
00000170: a724 8ebe a294 6cbd 6b9e efbd f1ce 4cbd
00000180: bd57 9dbd c5d2 17be 778b 293b e71c e03c
00000190: 74fb 19be 1e00 82bd b146 44be 8aed a0bd
000001a0: 8181 d8bd cc70 b2bc 5950 72bd 3c70 043e
000001b0: 2f66 273d 61e7 3abc c9d0 32be c21e f43d
000001c0: 1334 2a3e 9061 493e 95fb 0dbd dcc4 41bd
000001d0: b84e 8b3d f7d5 fc3d 61aa 773e 7a05 443d
000001e0: 6871 d0bd 5d0f 8bbd 313d ea3d 2f61 4d3c
000001f0: 527e 51be d85d 483e e577 9b3e 0fcc b73d
00000200: 4070 013a 19ed f4bd 097c 163e cfb1 f13e
00000210: 812f d13e c8e8 513e c453 a4bd c34a d43d
00000220: e9ec aa3e e5c2 c23e 2deb 5d3e c585 e93b
00000230: 394c 343c 080d 7c3e 72fb 6f3e 27b1 813e
00000240: d865 09bd e731 903c 2a75 e53d 93f5 6f3e
00000250: a2c4 1d3e d26a 98be a6da c1bd cf1c b4be
00000260: ff70 6bbe 37c8 9dbb 221d b6be cf19 503e
00000270: 7823 18ba 04c2 8dbc 1187 f23b 3a27 43bd
00000280: 41f9 d83e 87cd 4f3f dae9 3f3f 14ee 2f3f
00000290: 29ce 9c3e 0acf e538 2f53 a83e 8182 d73e
000002a0: d3da c13e c1e0 debc 1bb8 a9be 0067 55bf
000002b0: 9aa2 72bf 3926 c0be 2792 99be 3e52 aa3e
000002c0: 9c20 5b3e dc64 ff3d 7a45 073f dbae 613e
000002d0: 2ab9 42be b88b 90be edf7 0bbf 8985 04bd
000002e0: de59 40be 6377 193e a20e 803e eaa4 9d3e
000002f0: e41b bd3e acc7 383d adf0 45be f667 323e
00000300: bd20 55bc e916 0a3e 1f70 c5bd b2d6 46be
00000310: 324a 21bf 0836 59bf 1f06 a5be 81d1 32be
00000320: 6073 143e 999f 3a3e 98ee 74bd a84e 6e3e
00000330: 8f97 5e3e 5aac 98be dc71 f0be 4570 6abf
00000340: 6ffd d4be cbaa 84be 4561 d3bd 06c0 6c3e
00000350: 115f 4c3e 399e 693d 1bf1 f53d ced3 12bd
00000360: dfe7 d63e 1b4b af3e 4d96 ad3e 8b9f 713d
00000370: 9f2d 6c3e c10f 603d ad62 f9bd 53ef a63c
00000380: 8992 f73d 31e6 ec3a 6e39 6e3e accc 043d
00000390: 08d7 ad3b 23b2 6a3c 2d24 a73e 32bb 87bd
000003a0: cd1c ddbe 3c81 dbbe 2a54 353d 4a92 dfbd
000003b0: deda cabe bf85 97be 820a 22be acb9 123d
000003c0: 944f 65be 448b 5e3b fd89 de3d 21be ac3d
000003d0: d614 6fbe b12c fa3d f01b ce3e 0528 de3e
000003e0: ec7c 623e d766 ea3d a497 2cbd b9fd c53d
000003f0: 2725 8d3c 9cf8 43be 6b5d 74be 2a57 923e

conv1.bias f4 [6]
0.084565654 0.4712743 -0.45260456 -0.12937568 0.021521784 -0.12684329
00000000: c230 ad3d dd4a f13e c9bb e7be 0f7b 04be
00000010: 744e b03c 35e3 01be

conv2.weight f4 [16, 6, 5, 5]
-0.10058358 -0.04931679 0.025962064 0.01285422 0.09841067 -0.094031006 -0.05086556 0.009154767
0.0077732657 -0.14520882 0.07028454 -0.09652839 -0.07851707 -0.19987538 0.1443125 0.027056789
-0.14962581 -0.09063347 -0.016062824 0.058216374 -0.036897935 -0.09709455 -0.026728097 0.022663884
0.043787397 -0.057084866 -0.14959382 -0.16090581 -0.028382838 0.31641507 -0.096187726 -0.1581661
-0.03323972 -0.07578257 0.061110504 0.104046196 -0.07780113 0.012243087 0.07457352 0.16898291
-0.06263837 -0.08239115 -0.03597687 0.0026613502 0.101774044 0.1467149 0.10143126 -0.013540648
0.109007575 0.12592539 0.32873413 0.28515673 0.14161903 0.21055494 0.031029856 -0.16338387
-0.014162233 0.06627948 0.17566566 0.15504815 0.5206745 0.19933636 0.21197917 -0.14857852
-0.28413042 0.15760571 -0.10803076 0.12971312 0.16782466 0.012042578 0.030264264 0.19507197
0.103683576 0.055958174 0.023512634 0.10682994 0.0215078 -0.17093204 -0.053423632 -0.105858415
-0.0077774017 0.0687893 -0.18959695 -0.0048822155 -0.038663894 0.121818736 0.084761135 0.101579495
-0.017636625 0.0020171828 0.043966454 0.08589407 -0.11161192 -0.025517501 0.12763235 0.09724568
0.07398237 -0.07682463 -0.0657775 -0.13578348 -0.28023475 0.0017577959 -0.06635652 0.030352043
0.010292184 -0.11374544 0.044139042 -0.041469134 0.085151106 0.25827453 0.04383118 0.10257681
0.08541458 0.09724907 0.297505 -0.18357147 -0.14093295 0.01911348 0.02021663 0.08813062
-0.13094333 -0.07416566 -0.082927614 -0.12810288 -0.019131066 0.21746024 0.1731462 0.0230159
-0.056626327 0.15554802 -0.11713648 -0.2533503 -0.042007517 -0.011864739 -0.016214265 -0.2514121
-0.23575562 -0.12211114 0.05578939 0.009501078 -0.13217156 -0.003126793 -0.21692511 -0.082608536
-0.061761 0.32835814 0.00801669 -0.11258611 -0.29203272 -0.108648345 0.0649745 -0.06756038
0.3223261 0.16719048 0.08132107 0.0636152 0.4679642 0.08813597 0.1412845 -0.0076255626
-0.09258528 0.60032415 0.05732394 0.034832638 0.2024353 0.10273604 -0.28055546 0.22319266
0.23913142 -0.1012292 0.06214104 0.18702173 0.09033545 -0.00036369226 0.3638499 0.032725785
0.00064914784 0.15119766 0.25581458 0.24315602 -0.056257814 -0.013736219 0.023029376 0.035905812
0.08009965 -0.24022196 -0.09137777 -0.13039522 -0.17069076 -0.03497902 -0.25416937 -0.19653319
-0.08417998 -0.26863405 -0.13880193 -0.21111009 -0.0757327 -0.1474211 -0.25862667 -0.30811432
-0.10788398 0.09893519 0.12454132 0.05817943 0.10001681 0.057080068 0.13913961 -0.065447256
-0.050891005 -0.018197306 0.14544478 -0.08719261 -0.05451731 0.03944109 0.029427018 -0.16258563
0.04109935 0.22281693 -0.098360695 -0.04240295 -0.03377934 -0.17268889 -0.017642662 -0.028307151
0.057479154 0.13892752 0.012968706 0.0009875373 0.044334933 0.037933484 0.17697614 -0.26648492
-0.07897896 -0.086492606 -0.08887765 -0.113356724 0.1350599 0.08891424 -0.31361583 -0.29282883
0.15446891 -0.15862173 -0.37917513 0.19021432 -0.054645643 0.12960702 0.027255042 -0.26047096
-0.31329882 -0.3902634 -0.31964406 -0.11764385 0.1439836 -0.05652494 -0.046418775 -0.08295111
00000000: c4fe cdbd 6700 4abd 65ae d43c 829a 523c
00000010: 898b c93d 5493 c0bd 6858 50bd e0fd 153c
00000020: e1b6 fe3b 9fb1 14be 57f1 8f3d adb0 c5bd
00000030: 8fcd a0bd 22ac 4cbe a8c6 133e 33a6 dd3c
00000040: 8237 19be 0a9e b9bd 2f96 83bc 4b74 6e3d
00000050: 4a22 17bd 82d9 c6bd e2f4 dabc 9ca9 b93c
00000060: 6a5a 333d d2d1 69bd 1f2f 19be 7ec4 24be
00000070: 2083 e8bc 2801 a23e 12fe c4bd 4bf6 21be
00000080: 5f26 08bd e433 9bbd 024f 7a3d 2c16 d53d
00000090: 3356 9fbd 3b97 483c 00ba 983d db09 2d3e
000000a0: 8c48 80bd b1bc a8bd 7c5c 13bd 0c6a 2e3b
000000b0: e96e d03d 6e3c 163e 31bb cf3d 98d9 5dbc
000000c0: 5d3f df3d 96f2 003e d74f a83e 1000 923e
000000d0: 9404 113e b79b 573e 5332 fe3c 1a4e 27be
000000e0: b608 68bc 89bd 873d b3e1 333e f1c4 1e3e
000000f0: ed4a 053f d51e 4c3e 1111 593e f824 18be
00000100: 8b79 91be 6463 213e 3b3f ddbd 84d3 043e
00000110: 3ada 2b3e 3c4e 453c c3ec f73c f2c0 473e
00000120: 0e58 d43d 6634 653d 919d c03c a8c9 da3d
00000130: 2031 b03c cf08 2fbe bdd2 5abd 4ccc d8bd
00000140: 93d9 febb 68e1 8c3d b425 42be fefa 9fbb
00000150: 085e 1ebd 1a7c f93d 3f97 ad3d e908 d03d
00000160: af7a 90bc b632 043b 2b16 343d 3be9 af3d
00000170: ca94 e4bd 140a d1bc 0eb2 023e be28 c73d
00000180: 1284 973d 3b56 9dbd 5bb6 86bd d30a 0bbe
00000190: ee7a 8fbe d865 e63a ede5 87bd d9a4 f83c
000001a0: 8ca0 283c 5ff3 e8bd 24cb 343d 8adb 29bd
000001b0: b463 ae3d 8f3c 843e 5388 333d ca13 d23d
000001c0: d7ed ae3d 852a c73d 9352 983e 29fa 3bbe
000001d0: ba50 10be df93 9c3c 599d a53c d47d b43d
000001e0: 0216 06be 2ae4 97bd f4d5 a9bd 672d 03be
000001f0: c1b8 9cbc e6ad 5e3e 3d4d 313e d78b bc3c
00000200: 02f1 67bd fb47 1f3e 40e5 efbd 21b7 81be
00000210: 1310 2cbd 5264 42bc c7d3 84bc 16b9 80be
00000220: ec69 71be 6815 fabd 6a83 643d 69aa 1b3c
00000230: fb57 07be e2ea 4cbb 9e21 5ebe aa2e a9bd
00000240: 1af9 7cbd 8f1e a83e 6f58 033c 8c93 e6bd
00000250: 5085 95be 0683 debd 5a11 853d 195d 8abd
00000260: ed07 a53e fb33 2b3e a98b a63d b048 823d
00000270: 0199 ef3e a280 b43d e2ac 103e dbdf f9bb
00000280: 5a9d bdbd d8ae 193f 82cc 6a3d abac 0e3d
00000290: 334b 4f3e 4667 d23d f7a4 8fbe 9e8c 643e
000002a0: dede 743e 4151 cfbd 9a87 7e3d a082 3f3e
000002b0: cb01 b93d f3ad beb9 894a ba3e 790b 063d
000002c0: 932b 2a3a 8fd3 1a3e 21fa 823e e4fd 783e
000002d0: 986e 66bd e10d 61bc 1aa8 bc3c f911 133d
000002e0: 490b a43d bffc 75be 4524 bbbd 5386 05be
000002f0: 8fc9 2ebe 2946 0fbd 7d22 82be ff3f 49be
00000300: 8e66 acbd 678a 89be 1822 0ebe 3e2d 58be
00000310: bf19 9bbd 8ff5 16be b76a 84be 29c1 9dbe
00000320: 47f2 dcbd 889e ca3d 850f ff3d 8e4d 6e3d
00000330: 9dd5 cc3d cacc 693d 9d7a 0e3e 3609 86bd
00000340: 1673 50bd 8412 95bc 7aef 143e 0a92 b2bd
00000350: 8b4d 5fbd fb8c 213d ee10 f13c d97c 26be
00000360: cb57 283d 1f2a 643e 5571 c9bd b7ae 2dbd
00000370: 355c 0abd 5bd5 30be 5887 90bc 66e4 e7bc
00000380: 436f 6b3d 0443 0e3e b27a 543c 4170 813a
00000390: 8c98 353d 2460 1b3d 3c39 353e b670 88be
000003a0: b9bf a1bd 0923 b1bd 7c05 b6bd 9227 e8bd
000003b0: 244d 0a3e ab18 b63d 4192 a0be a9ed 95be
000003c0: 192d 1e3e bc6d 22be 3e23 c2be 8bc7 423e
000003d0: 1cd4 5fbd b4b7 043e f745 df3c 735c 85be
000003e0: b468 a0be 9bd0 c7be 63a8 a3be 42ef f0bd
000003f0: 7070 133e b286 67bd 9d21 3ebd 46e2 a9bd

conv2.bias f4 [16]
0.19916557 0.41809672 -0.30713364 0.18141527 -0.4177355 0.39350912 -0.12163436 1.0420084
-0.5610385 0.4209736 -0.24192533 -0.28487295 0.24090974 -0.5477485 1.3514665 -0.0156179415
00000000: 0ff2 4b3e c610 d63e 9f40 9dbe edc4 393e
00000010: 6de1 d5be 077a c93e 6f1b f9bd 8860 853f
00000020: 38a0 0fbf da89 d73e 46bb 77be deda 91be
00000030: 0bb1 763e 3f39 0cbf dbfc ac3f 65e2 7fbc

fc1.weight f4 [32, 400]
0.15265049 -0.07995736 -0.03262215 0.07157262 -0.097578324 -0.014711345 0.045578323 0.1536901
0.061594803 -0.06799325 -9.420204e-05 -0.07556607 -0.028744327 0.12326156 -0.14591672 0.15568504
0.09555947 0.019539043 0.10235138 -0.15851977 0.02477003 -0.034430966 0.02587274 -0.021248115
-0.092605814 0.07823446 0.060248606 0.15384407 0.023459138 0.15542269 -0.036976922 0.0521756
0.16425957 0.06997099 0.012628306 -0.021288127 -0.16455604 -0.06460498 -0.062672004 0.064225875
0.029766154 -0.06365206 -0.075923815 0.00042038655 0.0925352 0.12994774 0.03454378 0.035439726
0.055664606 0.31743398 -0.02066316 -0.13545433 -0.040000614 0.024482423 0.10529667 0.18006776
0.082382105 0.24945766 0.1288731 0.07549911 0.014209102 0.15491173 0.09177747 -0.02422689
-0.0065789865 -0.28902888 -0.08122861 0.022380156 0.021876618 -0.24082878 0.091449894 -0.014465412
-0.005768332 0.10920352 -0.113962196 -0.06312905 0.031371135 -0.06700188 0.048821628 -0.12291596
0.046701934 0.024370275 -0.028117292 0.0731596 0.01527207 0.04474626 0.057071988 0.050154127
-0.03254962 0.018205084 0.100476384 0.18797055 0.0507711 -0.08815038 0.045639407 -0.10529893
-0.05786348 -0.15297681 -0.19352588 -0.02574036 0.03472765 0.2165354 0.05206272 0.05321104
0.19771445 -0.18212023 0.05268474 0.17952777 0.031743716 -0.024691384 -0.09646189 -0.011104869
0.133686 0.1125336 -0.049436346 -0.15394036 0.0062887794 -0.054196812 0.026730172 -0.120132916
0.14229259 0.06232553 0.19644333 0.15410818 0.047045276 -0.035636637 0.11121127 -0.028040094
-0.010750514 0.03439787 -0.058509886 0.02976002 0.06164604 -0.05082522 0.051446367 -0.10441376
0.0968612 0.092182145 -0.008621267 -0.04166938 -0.089503326 0.072576135 -0.009893799 0.023661673
0.050047923 -0.5492198 -0.14486404 -0.06402765 -0.037597626 0.03700471 -0.13704531 0.027377272
0.15930688 0.19130862 0.049052346 -0.048637297 0.0055663125 0.03917568 0.053866312 -0.008663136
-0.010462271 0.09549162 0.020279706 0.013723564 0.07552682 -0.1495209 -0.04384326 -0.019023847
-0.061319936 0.067963265 -0.275798 0.026857236 -0.01596149 0.077651024 -0.041008215 0.051811177
0.16235922 0.108472265 0.20038633 0.14275925 -0.030281503 -0.0066181584 -0.036379647 0.04954664
-0.045177273 0.12559076 -0.0015890409 -0.06591266 -0.06562134 -0.088543214 0.06962231 0.07549057
0.03969762 0.012217474 -0.02218884 0.101863295 0.106699996 0.083883055 0.13721533 0.07700805
-0.16870897 -0.08553597 -0.085758515 0.028464243 -0.031082012 -0.11614417 -0.16857535 -0.07576693
0.15666081 0.044167593 -0.23408148 -0.09680866 -0.107661515 0.073083594 0.10297168 -0.13557085
-0.07678592 -0.093998395 -0.04514155 0.067426056 -0.14413375 -0.049268894 -0.002440269 0.049668938
0.1590748 -0.014078536 -0.022609351 0.029712759 0.02930304 0.022489397 0.16084231 0.098318696
-0.057862334 -0.043334395 0.10724497 0.220778 0.08006537 0.035560124 0.029071936 0.073852696
0.026907146 -0.07862345 -0.13612755 -0.03659328 0.115561344 0.20810787 -0.01996066 -0.09120173
-0.079736374 0.009505046 -0.19233407 -0.12693031 -0.10592057 0.005596603 -0.067934476 -0.16308396
00000000: 6950 1c3e afc0 a3bd ce9e 05bd aa94 923d
00000010: 25d7 c7bd da07 71bc 56b0 3a3d f060 1d3e
00000020: d54a 7c3d 0c40 8bbd 568e c5b8 62c2 9abd
00000030: 3979 ebbc 8f70 fc3d 316b 15be e66b 1f3e
00000040: afb4 c33d 5810 a03c 9a9d d13d 0253 22be
00000050: 85ea ca3c 7c07 0dbd 12f3 d33c 8710 aebc
00000060: 1ea8 bdbd 6339 a03d 3ec7 763d 4d89 1d3e
00000070: 612d c03c 2027 1f3e 1d75 17bd 15b6 553d
00000080: a933 283e f34c 8f3d f4e6 4e3c 7064 aebc
00000090: 6181 28be 9e4f 84bd 2e5a 80bd db88 833d
000000a0: 26d8 f33c 035c 82bd f27d 9bbd 5467 dc39
000000b0: 1883 bd3d 0511 053e c77d 0d3d 3f29 113d
000000c0: 9200 643d b586 a23e ca45 a9bc 8ab4 0abe
000000d0: afd7 23bd 5d8f c83c c8a5 d73d af63 383e
000000e0: f3b7 a83d d471 7f3e 4ff7 033e 479f 9a3d
000000f0: 4bcd 683c 2ea1 1e3e d4f5 bb3d 7977 c6bc
00000100: 8a94 d7bb 98fb 93be 2f5b a6bd 9756 b73c
00000110: 9836 b33c d29b 76be 154a bb3d 5600 6dbc
00000120: 4704 bdbb 18a6 df3d 0365 e9bd ce49 81bd
00000130: 057f 003d 4838 89bd 30f9 473d 5dbb fbbd
00000140: 874a 3f3d 2ca4 c73c 3c56 e6bc b3d4 953d
00000150: b437 7a3c db47 373d 51c4 693d 6a6e 4d3d
00000160: c052 05bd d422 953c 90c6 cd3d 5a7b 403e
00000170: 5bf5 4f3d 3088 b4bd 63f0 3a3d f7a6 d7bd
00000180: 4202 6dbd f4a5 1cbe a62b 46be 73dd d2bc
00000190: 953e 0e3d 75bb 5d3e b83f 553d d2f3 593d
000001a0: a875 4a3e ba7d 3abe f4cb 573d 21d6 373e
000001b0: b305 023d 9645 cabc d08d c5bd 32f1 35bc
000001c0: fce4 083e 0478 e63d c47d 4abd 8ba2 1dbe
000001d0: 1b12 ce3b 7afd 5dbd 3cf9 da3c 3f08 f6bd
000001e0: 26b5 113e 0e49 7f3d 7128 493e 89ce 1d3e
000001f0: 8cb2 403d b9f7 11bd bcc2 e33d 57b4 e5bc
00000200: ed22 30bc c8e4 0c3d 10a8 6fbd 49cb f33c
00000210: 8f80 7c3d 1b2e 50bd 6db9 523d e2d6 d5bd
00000220: 2a5f c63d fec9 bc3d 3740 0dbc 83ad 2abd
00000230: 854d b7bd cca2 943d 9a19 22bc 20d6 c13c
00000240: 0dff 4c3d ab99 0cbf 3d57 14be ee20 83bd
00000250: f8ff 19bd 4092 173d 9b55 0cbe 4d46 e03c
00000260: 5821 233e 68e6 433e 1deb 483d e737 47bd
00000270: 9d65 b63b ae76 203d eca2 5c3d d3ef 0dbc
00000280: f269 2bbc 1c91 c33d a021 a63c cdd8 603c
00000290: cead 9a3d 021c 19be fd94 33bd e6d7 9bbc
000002a0: 9d2a 7bbd 5330 8b3d 6535 8dbe b503 dc3c
000002b0: acc1 82bc 8007 9f3d 3bf8 27bd f537 543d
000002c0: 7f41 263e b526 de3d 1332 4d3e 7b2f 123e
000002d0: ea10 f8bc 23dd d8bb d302 15bd 6bf1 4a3d
000002e0: ce0b 39bd dd9a 003e 5d47 d0ba 37fd 86bd
000002f0: 7b64 86bd 2556 b5bd 2496 8e3d cd9a 9a3d
00000300: f999 223d cd2b 483c 5fc5 b5bc b49d d03d
00000310: 8785 da3d e1ca ab3d 2d82 0c3e 66b6 9d3d
00000320: 0bc2 2cbe 7c2d afbd 29a2 afbd d82d e93c
00000330: b49f febc ffdc edbd 049f 2cbe b12b 9bbd
00000340: b16b 203e 14e9 343d 0eb3 6fbe 9e43 c6bd
00000350: a47d dcbd daac 953d d1e2 d23d 16d3 0abe
00000360: f041 9dbd 3b82 c0bd 59e6 38bd ac16 8a3d
00000370: cc97 13be 2ece 49bd ecec 1fbb a871 4b3d
00000380: 81e4 223e a9a9 66bc 3f37 b9bc 2c68 f33c
00000390: ee0c f03c af3b b83c d9b3 243e 505b c93d
000003a0: 0e01 6dbd 687f 31bd 40a3 db3d a113 623e
000003b0: 50f9 a33d 7ea7 113d 4528 ee3c 1540 973d
000003c0: 606c dc3c 5505 a1bd 0565 0bbe d6e2 15bd
000003d0: 6dab ec3d 3b1a 553e 8a84 a3bc f9c7 babd
000003e0: d34c a3bd 0dbb 1b3c 39f3 44be 05fa 01be
000003f0: e2ec d8bd b563 b73b 3b21 8bbd 7bff 26be

fc1.bias f4 [32]
-0.12704417 0.10212814 0.030264517 -0.101990476 0.021565756 0.055323184 0.10138145 0.056163333
0.40695202 -0.541514 0.40936828 0.2546807 -0.052538708 0.07967738 0.086954586 0.08074508
-0.48902598 -0.05075039 0.015708685 0.2107562 -0.069435716 0.049632587 0.34370038 0.18824363
-0.27033687 0.06793599 0.15293148 0.32806808 0.11419811 -0.13947947 -0.028998433 0.31216305
00000000: de17 02be 8f28 d13d 4bed f73c 62e0 d0bd
00000010: abaa b03c 909a 623d 14a1 cf3d 860b 663d
00000020: 045c d03e a9a0 0abf b898 d13e 8265 823e
00000030: d432 57bd e52d a33d 3f15 b23d ad5d a53d
00000040: 9d61 fabe a4df 4fbd 80af 803c 79d0 573e
00000050: 5034 8ebd 8a4b 4b3d 7ff9 af3e f0c2 403e
00000060: 9869 8abe 0622 8b3d 129a 1c3e 8af8 a73e
00000070: b3e0 e93d b5d3 0ebe 1f8e edbc d6d3 9f3e

fc2.weight f4 [64, 32]
-0.21237464 -0.12972973 -0.0009917952 -0.19997913 0.044000633 -0.039575092 0.14625135 0.0933081
0.058516335 0.078961655 0.07464278 -0.18187504 -0.0885421 0.121018484 0.24899207 -0.07923674
0.02555096 0.24261077 0.14971487 0.116912656 -0.11067371 0.1091697 -0.19931251 -0.13559726
0.039330795 0.12983705 -0.063198894 -0.007718179 0.10636939 0.12244791 0.085960716 -0.14135832
-0.10050953 0.072858825 -0.18997434 0.13819982 -0.06683775 -0.17501059 0.17185114 -0.014341345
-0.21257976 0.06860807 -0.11132455 -0.115547255 -0.13810873 -0.03672373 0.23014231 0.009462012
-0.04908061 0.1749485 0.31528088 0.07076182 0.1680889 0.104865015 0.24295974 -0.16495359
0.07619572 0.19794065 -0.18853988 -0.2777027 0.04587024 0.12641793 0.039994013 0.0732631
-0.06117631 -0.15682095 -0.050100543 0.07659814 -0.061698876 -0.06730216 0.017825289 0.047287364
0.0036254404 0.08726312 0.10452616 0.24314669 -0.015258707 0.06419677 -0.184518 0.115237586
-0.00030810572 -0.049198437 -0.035231367 -0.11649095 -0.06304734 -0.24436599 0.33941677 -0.070176415
-0.14699323 -0.09943067 -0.060618605 0.12967688 -0.24443518 -0.18535037 -0.39755172 -0.06295694
-0.053060036 0.162019 0.021926211 -0.144419 0.07617227 -0.08258893 0.07820771 0.17171356
0.019647004 -0.019561073 -0.027828664 -0.054359727 -0.11138625 -0.1718319 -0.009178715 0.098064736
0.025818463 -0.13398385 -0.044351574 -0.17259233 -0.13651474 0.21606196 -0.054184288 0.21882045
-0.14148952 0.1689342 -0.15361868 -0.111689 0.096191965 -0.09948792 -0.071203016 -0.18161605
0.14724109 -0.1344131 -0.23851843 -0.22265542 0.013674588 -0.009300507 -0.050094005 -0.0592162
-0.10888437 0.047952924 -0.18743528 0.04352381 -0.042133775 -0.11008663 -0.11142933 0.13395457
0.035246644 -0.11122818 0.17170094 0.10044727 0.40051928 -0.17284204 -0.118721336 0.023662345
0.107786365 0.17247011 -0.08149852 -0.23753855 0.2180727 -0.14561354 -0.058334608 0.14239597
-0.04184109 0.07820619 -0.01962589 0.059159186 0.02635943 0.04966407 -0.04917365 -0.046698228
-0.08356155 -0.08153815 -0.14928599 0.15842925 0.15387675 -0.12406272 -0.14199054 0.1976713
-0.05486259 -0.08815309 0.050824657 -0.12261404 0.09527295 -0.100092456 -0.14477766 0.13977043
-0.15597503 0.0024297524 -0.06361124 0.1237353 -0.119323194 0.128853 -0.052604657 -0.15352313
-0.040554527 -0.051591657 -0.10198954 0.033631027 -0.11266575 0.041833308 0.3266251 -0.2151313
-0.008115563 0.103112675 -0.06316554 0.075962916 -0.11559864 0.20419802 0.21020341 -0.04373727
0.07441858 0.19508268 0.001711444 -0.067414336 -0.1952935 -0.04850384 0.22497857 -0.06069663
-0.07434535 -0.13367419 -0.2395318 0.123667054 -0.12539285 -0.053309362 0.052176043 0.046412084
-0.10674693 0.07556221 -0.1295109 -0.07053914 -0.118530095 -0.17605835 -0.105938494 -0.19462211
-0.19112551 0.0959869 -0.0016000237 0.026981592 0.15816247 0.18717724 0.20987119 0.032535546
-0.032184433 0.22662708 -0.051697228 -0.07215466 -0.031237097 0.2226753 -0.05912765 0.04990116
0.0916743 -0.018161898 -0.26477316 -0.0032442582 -0.065028295 0.21069776 0.15822047 -0.101876825
00000000: bd78 59be dfd7 04be 20ff 81ba 54c7 4cbe
00000010: 023a 343d 7e19 22bd eac2 153e 5118 bf3d
00000020: d3ae 6f3d a6b6 a13d 50de 983d 733d 3abe
00000030: 8f55 b5bd 8ad8 f73d c7f7 7e3e df46 a2bd
00000040: 3f50 d13c f56e 783e db4e 193e e76f ef3d
00000050: e6a8 e2bd 5d94 df3d 9418 4cbe 02da 0abe
00000060: 5419 213d 01f4 043e 6c6e 81bd c7e8 fcbb
00000070: 32d8 d93d f8c5 fa3d 2c0c b03d 3cc0 10be
00000080: f1d7 cdbd 0237 953d a288 42be 4184 0d3e
00000090: 3be2 88bd fa35 33be bff9 2f3e f6f7 6abc
000000a0: 82ae 59be 6382 8c3d 20fe e3bd 0aa4 ecbd
000000b0: 606c 0dbe 9f6b 16bd 6daa 6b3e 8e06 1b3c
000000c0: c008 49bd b325 333e 7f6c a13e 93eb 903d
000000d0: 7f1f 2c3e 78c3 d63d 70ca 783e 98e9 28be
000000e0: 800c 9c3d f4b0 4a3e 9910 41be 0c2f 8ebe
000000f0: 6fe2 3b3d b473 013e c3d0 233d f70a 963d
00000100: 0394 7abd ac95 20be 3a36 4dbd 7cdf 9c3d
00000110: f6b7 7cbd b7d5 89bd 5706 923c 65b0 413d
00000120: cc98 6d3b 02b7 b23d d011 d63d 72fb 783e
00000130: a8ff 79bc 9979 833d 49f2 3cbe af01 ec3d
00000140: 4089 a1b9 4d84 49bd c44e 10bd cf92 eebd
00000150: f71e 81bd 143b 7abe 09c8 ad3e a7b8 8fbd
00000160: 6585 16be 4fa2 cbbd 374b 78bd 04ca 043e
00000170: 374d 7abe 7dcc 3dbe e68b cbbe 91ef 80bd
00000180: 7b55 59bd 4fe8 253e 999e b33c 93e2 13be
00000190: 3500 9c3d 6324 a9bd 5d2b a03d aed5 2f3e
000001a0: c1f2 a03c 8b3e a0bc f0f8 e3bc 4ea8 5ebd
000001b0: 791e e4bd b4f4 2fbe 5262 16bc 2ad6 c83d
000001c0: 3e81 d33c 1033 09be ffa9 35bd 0bbc 30be
000001d0: 85ca 0bbe 593f 5d3e 58f0 5dbd 7812 603e
000001e0: a1e2 10be 16fd 2c3e 374e 1dbe 34bd e4bd
000001f0: 4b00 c53d 53c0 cbbd e3d2 91bd 8ff9 39be
00000200: 5ec6 163e 96a3 09be 2d3e 74be c8ff 63be
00000210: 610b 603c 2761 18bc 5f2f 4dbd b08c 72bd
00000220: c5fe debd 496a 443d 09ef 3fbe 0646 323d
00000230: 7794 2cbd 1975 e1bd 1035 e4bd 632b 093e
00000240: c95e 103d 9acb e3bd 5fd2 2f3e 4cb7 cd3d
00000250: dd10 cd3e 81fd 30be 2c24 f3bd 89d7 c13c
00000260: 19bf dc3d 019c 303e b2e8 a6bd 4e3d 73be
00000270: 734e 5f3e b71b 15be 45f0 6ebd 40d0 113e
00000280: 9061 2bbd 912a a03d 79c6 a0bc e750 723d
00000290: bbef d73c 8d6c 4b3d 4f6a 49bd a446 3fbd
000002a0: 5122 abbd 79fd a6bd 6dde 18be 473b 223e
000002b0: de91 1d3e 9814 febd f865 11be 586a 4a3e
000002c0: 98b7 60bd 9b89 b4bd 842d 503d 121d fbbd
000002d0: 771e c33d 46fd ccbd 9840 14be fb1f 0f3e
000002e0: ebb7 1fbe 7b3c 1f3b 9c46 82bd ef68 fd3d
000002f0: b85f f4bd 0af2 033e fb77 57bd 2b35 1dbe
00000300: 811c 26bd c651 53bd e4df d0bd b0c0 093d
00000310: 4dbd e6bd 6759 2b3d 683b a73e 614b 5cbe
00000320: 23f7 04bc bd2c d33d ef5c 81bd 7292 9b3d
00000330: fbbe ecbd 4919 513e 903f 573e da25 33bd
00000340: c568 983d c1c3 473e 8852 e03a 8710 8abd
00000350: 05fb 47be f6ab 46bd c860 663e 089d 78bd
00000360: 6042 98bd e3e1 08be d347 75be 2745 fd3d
00000370: fc66 00be eb5a 5abd 8cb6 553d 991a 3e3d
00000380: 229e dabd 5cc0 9a3d 819e 04be d376 90bd
00000390: e8bf f2bd a448 34be 48f6 d8bd 054b 47be
000003a0: 68b6 43be c894 c43d e3b7 d1ba 8008 dd3c
000003b0: 58f5 213e 64ab 3f3e 79e8 563e fe43 053d
000003c0: d3d3 03bd ee10 683e 79c0 53bd d3c5 93bd
000003d0: f1e4 ffbc fe04 643e d62f 72bd 2965 4c3d
000003e0: bcbf bb3d 43c8 94bc 5990 87be 9f9d 54bb
000003f0: 8e2d 85bd 27c1 573e 8c04 223e cca4 d0bd

fc2.bias f4 [64]
0.12076343 0.19764504 0.6125516 0.017572459 -0.0759353 -0.12281703 0.12298159 -0.14325234
0.21617147 -0.12625577 -0.22254467 0.37052158 -0.099360354 -0.09771287 -0.07579377 -0.05601619
-0.060706336 -0.2747084 0.55937403 -0.4159864 -0.10679124 0.24294631 0.22128363 -0.11314338
0.08817827 -0.13058858 -0.27895978 0.0533479 -0.0002317884 -0.31709436 -0.1600876 0.46266717
-0.11202498 -0.037626736 0.040519737 -0.26882046 -0.11663302 0.48095545 0.3830091 0.2558207
0.32108226 -0.23419477 0.3795983 0.1053646 0.13434781 0.123613745 0.48533964 0.3259243
0.23518081 -0.057507664 0.153136 0.0069402386 0.4891674 0.25545955 -0.12584771 0.3699483
0.010431123 0.17267783 -0.3327453 0.07807993 -0.11342326 -0.25982288 0.13281508 -0.25540105
00000000: d152 f73d 7663 4a3e 2fd0 1c3f 1ef4 8f3c
00000010: f783 9bbd 7f87 fbbd c6dd fb3d beb0 12be
00000020: 0e5c 5d3e 3149 01be c0e2 63be 01b5 bd3e
00000030: 717d cbbd af1d c8bd c439 9bbd 3c71 65bd
00000040: 35a7 78bd 94a6 8cbe 2333 0f3f 2bfc d4be
00000050: 5eb5 dabd ebc6 783e 2d98 623e b7b7 e7bd
00000060: cf96 b43d 03b9 05be d1d3 8ebe 5483 5a3d
00000070: 3a0c 73b9 315a a2be 01ee 23be b6e2 ec3e
00000080: 5a6d e5bd 7e1e 1abd 06f8 253d d6a2 89be
00000090: 4bdd eebd cb3f f63e c519 c43e eefa 823e
000000a0: e564 a43e c1d0 6fbe b55a c23e 65c9 d73d
000000b0: 7992 093e 3429 fd3d 707e f83e 8ddf a63e
000000c0: 3dd3 703e 288d 6bbd afcf 1c3e f16a e33b
000000d0: 2674 fa3e 98cb 823e 39de 00be dd69 bd3e
000000e0: 4de7 2a3c 75d2 303e 985d aabe 5fe8 9f3d
000000f0: 744a e8bd 8107 85be ad00 083e edc3 82be

fc3.weight f4 [10, 64]
0.0550184 0.0340625 -0.15088478 0.09236047 -0.1463628 0.03706233 -0.0972341 -0.019210156
0.09399148 0.12949334 0.01975615 0.27701107 0.035903905 -0.014480205 0.09602941 0.27638862
0.124147914 0.12875465 -0.37711287 0.09345925 0.11115191 -0.12573253 0.32708248 -0.0022129177
-0.0887081 -0.17433591 -0.11679484 -0.12277591 0.04101514 0.046151783 -0.0068862434 0.37404263
-0.0648632 -0.010827894 0.10313242 -0.02095842 -0.06259509 0.029849175 0.15829219 -0.19605576
-0.1500373 0.32379764 -0.07756841 0.093456455 0.0067731403 0.021810373 -0.2671012 0.035666488
-0.100809276 0.21009783 -0.11005503 -0.12264671 0.013459855 0.39780325 0.33149847 -0.34475428
0.021045633 -0.28981414 0.017161688 -0.03241327 -0.048291728 -0.21595392 0.12923743 0.11206092
0.25830346 0.16421236 -0.1337036 0.0016980212 -0.020754363 -0.114742115 0.17304413 0.26000956
-0.06694028 0.061343893 0.0071673566 -0.21913792 -0.08833283 0.08856199 0.26654455 0.13115728
-0.18937784 0.15014702 -0.12919044 -0.068528704 0.059841808 -0.09639365 0.25766456 0.0021088833
-0.031224027 0.1938135 0.2571437 0.26040867 0.042835467 0.32260588 0.03789586 -0.25419614
-0.055493683 0.017946864 0.009554672 0.09267129 -0.09768034 -0.14730269 -0.25045443 -0.28368893
-0.35770333 0.04969793 0.008704193 -0.279269 0.5138625 -0.19987358 -0.18350902 -0.45519072
0.06849472 0.13651335 0.031137863 -0.111226656 -0.17619008 -0.15021463 -0.20375854 -0.28694794
-0.041347656 0.20091167 0.3034941 -0.11104457 0.002331191 0.22694288 0.16466801 0.09335346
-0.13478346 -0.18848614 -0.10579396 0.07757655 -0.13379003 -0.051421747 -0.2197755 0.026317878
0.14876431 0.26909146 0.090881966 0.17539525 0.042673163 0.0034960099 -0.009154847 0.17062666
0.18324243 -0.051248364 0.40737095 0.14535563 0.35020995 0.060685378 -0.09750058 0.27584082
-0.06446321 -0.04835021 0.06582971 -0.05990892 0.024405772 0.2551381 -0.09095514 -0.16834164
-0.00681209 -0.0049458384 0.08193655 0.22788435 -0.04355573 -0.06783312 0.08628238 -0.057596996
-0.06969148 -0.16499351 0.10398061 0.07145755 -0.28845033 0.325796 0.04415285 -0.009441658
-0.08835706 -0.13599901 -0.020088676 0.27622226 0.1292255 0.23131278 -0.029948281 -0.018012578
0.116177686 0.096373655 -0.13540955 0.10940402 0.03867466 -0.09379411 -0.051264677 -0.0028130026
0.019571215 0.090569384 0.28214645 0.04859963 -0.113978624 0.024701107 0.05933189 -0.07378642
0.09733457 0.12456166 0.05642442 -0.2920529 -0.029666888 0.07341738 -0.08589284 -0.15272021
0.034383073 0.14641997 0.045129728 0.064072154 -0.01689792 -0.14804146 -0.029461278 0.093683966
-0.06311019 -0.086406775 0.029147513 0.15507615 0.051584244 -0.23448808 -0.11750292 -0.09036667
-0.08306551 0.13978398 -0.08558942 -0.05759881 -0.13201743 -0.06887859 0.06709551 -0.027741754
0.2030728 0.12984113 0.040643066 0.24173085 -0.26692393 -0.0007257692 -0.15226878 0.2911648
-0.2628191 0.119089566 0.10602019 -0.018972054 0.33411452 -0.17752385 -0.15285455 0.2580152
0.072786085 0.14763989 -0.28190032 0.21133293 -0.030303461 -0.07166066 0.1008876 -0.06727979
00000000: f95a 613d 1f85 0b3d 8a81 1abe 7c27 bd3d
00000010: 21e0 15be abce 173d ac22 c7bd 9e5e 9dbc
00000020: 9b7e c03d e799 043e a6d7 a13c 65d4 8d3e
00000030: f90f 133d 623e 6dbc 11ab c43d cf82 8d3e
00000040: 4341 fe3d 42d8 033e f014 c1be 9067 bf3d
00000050: 9da3 e33d 07c0 00be 5b77 a73e 9906 11bb
00000060: 98ac b5bd 1d85 32be 2232 efbd f071 fbbd
00000070: 7eff 273d a709 3d3d ffa5 e1bb 8482 bf3e
00000080: ffd6 84bd 7b67 31bc 1737 d33d feb0 abbc
00000090: db31 80bd 4286 f43c 5917 223e d7c2 48be
000000a0: 61a3 19be cec8 a53e 30dc 9ebd 1966 bf3d
000000b0: 38f1 dd3b abab b23c 7dc1 88be 0617 123d
000000c0: 1875 cebd e323 573e 8864 e1bd 332e fbbd
000000d0: b986 5c3c deac cb3e 2bba a93e a283 b0be
000000e0: e467 ac3c 8562 94be ab96 8c3c c7c3 04bd
000000f0: 8ccd 45bd 0623 5dbe d156 043e 3280 e53d
00000100: 5a40 843e 4927 283e 99e9 08be 2390 de3a
00000110: 0e05 aabc eafd eabd 7b32 313e f91f 853e
00000120: fc17 89bd bc43 7b3d 25dc ea3b b165 60be
00000130: d8e7 b4bd fd5f b53d 8778 883e 184e 063e
00000140: 44ec 41be 24c0 193e 804a 04be c758 8cbd
00000150: af1c 753d 096a c5bd 9cec 833e 3135 0a3b
00000160: 88c9 ffbc 0c77 463e 57a8 833e 4954 853e
00000170: 3e74 2f3d 992c a53e b038 1b3d ff25 82be
00000180: 584d 63bd 4d05 933c 338b 1c3c 72ca bd3d
00000190: a10c c8bd 84d6 16be 903b 80be ad3f 91be
000001a0: e424 b7be 0f90 4b3d 089c 0e3c 59fc 8ebe
000001b0: 7e8c 033f a9ab 4cbe cae9 3bbe c20e e9be
000001c0: f646 8c3d 28ca 0b3e d514 ff3c cdca e3bd
000001d0: 2c6b 34be ddd1 19be 14a6 50be d7ea 92be
000001e0: 295c 29bd cabb 4d3e 9463 9b3e 566b e3bd
000001f0: e5c6 183b b763 683e bb9e 283e 1930 bf3d
00000200: ad04 0abe 8302 41be 81aa d8bd 74e0 9e3d
00000210: 4100 09be 9c9f 52bd d40c 61be 9798 d73c
00000220: ac55 183e 5bc6 893e 5320 ba3d d09a 333e
00000230: 0eca 2e3d 501d 653b 36fe 15bc c1b8 2e3e
00000240: e7a3 3b3e cee9 51bd ed92 d03e 1bd8 143e
00000250: b84e b33e 3b91 783d 62ae c7bd 023b 8d3e
00000260: 4a05 84bd df0a 46bd bad1 863d 0e63 75bd
00000270: 9dee c73c 76a1 823e b046 babd c061 2cbe
00000280: f437 dfbb b310 a2bb 5ace a73d 845a 693e
00000290: 7e67 32bd 17ec 8abd d1b4 b03d d4ea 6bbd
000002a0: 68ba 8ebd 0ff4 28be c9f3 d43d 5658 923d
000002b0: c3af 93be bcce a63e 9ed9 343d 2fb1 1abc
000002c0: 8cf4 b4bd 5343 0bbe 0291 a4bc 016d 8d3e
000002d0: b153 043e 42dd 6c3e 1956 f5bc 1d8f 93bc
000002e0: 91ee ed3d 8d5f c53d cda8 0abe 370f e03d
000002f0: 5269 1e3d 2017 c0bd e9fa 51bd 5a5a 38bb
00000300: d053 a03c 717c b93d 8075 903e 6810 473d
00000310: a06d e9bd fa59 ca3c ff05 733d 561d 97bd
00000320: 5957 c73d 2f1a ff3d 4b1d 673d f587 95be
00000330: f907 f3bc da5b 963d 96e8 afbd b062 1cbe
00000340: 44d5 0c3d 1eef 153e f3d9 383d 4338 833d
00000350: 826d 8abc 2e98 17be c758 f1bc 61dd bf3d
00000360: ea3f 81bd 09f6 b0bd c4c6 ee3c 48cc 1e3e
00000370: 004a 533d a51d 70be 5fa5 f0bd 2912 b9bd
00000380: 401e aabd 8823 0f3e 8149 afbd bbec 6bbd
00000390: 942f 07be 3810 8dbd 5f69 893d ad42 e3bc
000003a0: 51f2 4f3e 13f5 043e 5879 263d 4b88 773e
000003b0: 41aa 88be 8c41 3eba 59ec 1bbe 8d13 953e
000003c0: 3a90 86be 3be5 f33d 1d21 d93d 486b 9bbc
000003d0: 0f11 ab3e d0c8 35be e785 1cbe 911a 843e
000003e0: df10 953d e92e 173e 3d55 90be a967 583e
000003f0: f73e f8bc d3c2 92bd 289e ce3d fdc9 89bd

fc3.bias f4 [10]
-0.3307806 -0.58835447 -0.08543 0.4341746 0.94083714 -0.38838843 0.24652973 -0.5149451
0.6628903 -0.4607183
00000000: 135c a9be 669e 16bf edf5 aebd 224c de3e
00000010: b4da 703f d9da c6be 4a72 7c3e 71d3 03bf
00000020: 2eb3 293f 45e3 ebbe
